model/SmallNet.pt (torch, 325315 bytes, 42 tensors)

res_blocks.0.conv1.weight f4 [32, 14, 3, 3]
0	0x3cd1ae2a	0.025595743
1	0xbe379a0b	-0.17929856
2	0xbd0ac2f4	-0.033877328
3	0xbd472d5a	-0.048627235
4	0xbea05576	-0.31315202
5	0xbd26bfa9	-0.040710125
6	0xbda8e777	-0.082472734
7	0xbdc4165f	-0.095745794
8	0xbd15ec46	-0.03660228
9	0xbbde6631	-0.0067870845
10	0xbe24909c	-0.16070789
11	0xbd983759	-0.07432432
12	0xbd745c7c	-0.059658512
13	0xbe5adb70	-0.21372771
14	0xbd7c6f6c	-0.061629698
15	0x3e782d47	0.24236022
16	0x3a9e0cf9	0.001205831
17	0xbdcb66fd	-0.09931753
18	0xbb36bbfd	-0.0027883046
19	0xbe787a24	-0.24265343
20	0x3dbb64b3	0.09150066
21	0xbda2f6ac	-0.07957205
22	0xbe8980c7	-0.26856062
23	0xbd990591	-0.07471765
24	0xbdfb362a	-0.1226619
25	0xbdea727b	-0.11447617
26	0x3f07852b	0.52937573
27	0x3c27dde8	0.010245778
28	0xbccf7070	-0.025322169
29	0x3e467574	0.19380742
30	0x3e1bd190	0.1521666
31	0xbe71b5a9	-0.23604454
32	0xbbbbafe8	-0.005727757
33	0xbe2d27c8	-0.16909707
34	0x3e3a8587	0.18214999
35	0xbdb30227	-0.08740645
36	0xbe79c5fb	-0.2439193
37	0xbd9b4123	-0.07580783
38	0x3d95858d	0.073008634
39	0x3e57e9d0	0.21085286
40	0x3d0f03ba	0.034915663
41	0xbe8cefdf	-0.27526757
42	0xbe30ff55	-0.17284901
43	0x3deddeeb	0.11614784
44	0x3e8cd8fa	0.2750929
45	0x3dc5bcce	0.09655152
46	0x3e617ff2	0.22021464
47	0x3dc5b7b8	0.09654182
48	0xbcca40ab	-0.02468904
49	0x3d9c43e0	0.07630134
50	0x3d81a6ac	0.06330618
51	0x3d8d4db1	0.06899584
52	0x3dffbe97	0.12487524
53	0x3b7c2895	0.0038476337
54	0xbdf4c741	-0.11952067
55	0xbe32b92e	-0.17453453
56	0xbdfc166a	-0.12308963
57	0xbd77ea80	-0.06052637
58	0xbea1a264	-0.31569207
59	0x3d3c7613	0.04601104
60	0xbd67b020	-0.05656445
61	0xbd552eb0	-0.052046478
62	0x3d1a27ab	0.037635487
63	0x3e1780a7	0.1479517
64	0x3dfe3643	0.12412693
65	0xbdd94b18	-0.10610026
66	0x3e20ecef	0.15715383
67	0x3e6f22d9	0.23353137
68	0xbd7f4897	-0.062325086
69	0xbe502701	-0.20327379
70	0xbcd48459	-0.025942015
71	0x3ebd7657	0.3700435
72	0x3d865b61	0.06560398
73	0xbbc228a2	-0.005925254
74	0xbd28f118	-0.04124555
75	0xbe866f95	-0.26257005
76	0xbd83b840	-0.06431627
77	0xbc8576df	-0.016292034
78	0xbdf803a5	-0.1211007
79	0x3dbe2eaf	0.09286248
80	0x3c8aa2e6	0.01692338
81	0x3e99e7e6	0.30059737
82	0x3e9a38b0	0.30121374
83	0x3d2d7a19	0.04235277
84	0x3e868bd0	0.26278543
85	0x3e8ea1cd	0.2785782
86	0x3ece14c0	0.40250206
87	0xbd6f52bb	-0.058428507
88	0x3d282c39	0.0410578
89	0xbcad24a6	-0.02113564
90	0x3ea7d38d	0.32778588
91	0x3ed11236	0.40834206
92	0xbe663a39	-0.22483148
93	0xbdb8c240	-0.09021425
94	0x3e278888	0.16360676
95	0xbe05767f	-0.13033484
96	0x3b2cd8c5	0.0026374322
97	0x3da7dc69	0.08196337
98	0xbdf4aaff	-0.119466774
99	0x3c950be2	0.018194143
100	0x3da372ba	0.07980867
101	0xbc8f865b	-0.01752012
102	0x3c8771f1	0.016533824
103	0x3e1c7572	0.15279177
104	0x3d1770d6	0.036972843
105	0x3d2b1e3f	0.04177689
106	0x3d951586	0.07279496
107	0x3da8fcdc	0.08251354
108	0x3d8487b7	0.06471198
109	0x3dac11b1	0.08401812
110	0xbc39e99c	-0.011347201
111	0xbd5a6c42	-0.0533259
112	0x3c820077	0.015869362
113	0x3caa7809	0.02080919
114	0xbd94f1d5	-0.07272688
115	0xbca15b8a	-0.01969697
116	0x3cb77df5	0.022398928
117	0x3d39aeff	0.045332905
118	0x3d2c0ada	0.042002536
119	0xbd659a11	-0.056055132
120	0x3d6ba1d3	0.057527374
121	0x3dd73192	0.10507502
122	0xbd5969b0	-0.053079307
123	0xbd3ee4e5	-0.04660501
124	0xbd91fb60	-0.07128024
125	0x3cbd167e	0.023082014
126	0x3d3b826e	0.045778684
127	0x3e2697c0	0.16268826
128	0x3de0e6ba	0.109815076
129	0x3d3be1f3	0.04586978
130	0xbef19ebd	-0.4719142
131	0x3e167c04	0.14695746
132	0x3ccaaf18	0.024741694
133	0x3daa23b3	0.0830759
134	0x3d8e7b63	0.06957128
135	0x3e236373	0.15955906
136	0x3d37d92f	0.044884857
137	0x3de48b61	0.11159397
138	0xbd519d47	-0.051175382
139	0xbef1c99d	-0.4722413
140	0x3c12b957	0.008955321
141	0xbd5f9dee	-0.054593973
142	0xbdd16169	-0.10223658
143	0xbe14a360	-0.14515448
144	0xbe41deda	-0.18932667
145	0x3e384ad5	0.17997296
146	0x3e2e1fb8	0.17004287
147	0x3ca4283d	0.020038718
148	0xbeb9a8d3	-0.36261615
149	0x3df385cd	0.11890755
150	0x3e36bd5b	0.17845671
151	0xbda9712b	-0.08273538
152	0xbe0cd0bc	-0.13751501
153	0x3dc2d3ab	0.09513029
154	0x3c370d67	0.011172629
155	0xbd4b5ebc	-0.049650893
156	0x3ec06679	0.3757818
157	0xbefd8eb1	-0.49522927
158	0xbe052b0d	-0.13004704
159	0x3dc498db	0.09599467
160	0xbe1a0ed5	-0.1504472
161	0x3dbda065	0.092591085
162	0xbde26e66	-0.11056213
163	0xbe6e6b2a	-0.23283067
164	0x3c65acbc	0.014018234
165	0x3e754877	0.23953424
166	0xbeb5e445	-0.35525718
167	0xbc81d234	-0.015847303
168	0x3dccea89	0.100056715
169	0xbe107b2b	-0.14109485
170	0xbe2ab155	-0.1666921
171	0x3bd996f4	0.0066403095
172	0xbd030872	-0.031990476
173	0x3dc36ef6	0.095426485
174	0x3c921fce	0.017837431
175	0xbe35a6e3	-0.17739443
176	0x3d22c243	0.039736044
177	0xbdb5bd98	-0.08874053
178	0x3de76112	0.112978116
179	0x3c318ef5	0.010837306
180	0x3d0bd5fb	0.034139615
181	0xbdbc974e	-0.092085466
182	0x3de3750f	0.111063115
183	0x3dd8044c	0.105476946
184	0xbd1e1404	-0.038593307
185	0x3e2668c6	0.16250905
186	0x3e4dd209	0.20099653
187	0xbee82a60	-0.4534483
188	0x3e396b15	0.18107255
189	0xbd47aba4	-0.048747674
190	0x3af33622	0.0018555562
191	0xbe3aacc7	-0.18229972
192	0x3e40e3f0	0.18836951
193	0x3c7cfc79	0.015441054
194	0x3ca9575f	0.020671545
195	0x3e210547	0.1572467
196	0x3d7f03b4	0.06225939
197	0xbd908128	-0.070558846
198	0x3d304973	0.043038797
199	0x3d301864	0.04299201
200	0xbe0cbd35	-0.13744052
201	0x3ec66c48	0.38754487
202	0xbca51aed	-0.02015444
203	0x3e9339f1	0.28755143
204	0x3e02e233	0.127816
205	0x3d827ff2	0.0637206
206	0x3e1ddebf	0.15417002
207	0x3da1dd2f	0.079035155
208	0xbe25dbb4	-0.16197091
209	0x3e2ad4d1	0.16682746
210	0x3d16b799	0.036796186
211	0x3d0a8d3e	0.033826105
212	0xbea85055	-0.32873788
213	0xbdbeaa96	-0.093098804
214	0x3e98ff1f	0.29882142
215	0x3d630fb1	0.055434886
216	0x3de030a7	0.1094678
217	0x3dc803f9	0.09766383
218	0xbe91f8b9	-0.28510073
219	0x3eb812ec	0.35951936
220	0xbbc57464	-0.0060258377
221	0xbd99c3ee	-0.07508074
222	0xbe53ff72	-0.20702913
223	0x3cefa479	0.029253231
224	0x3dcd513a	0.10025258
225	0xbcfff994	-0.031246938
226	0xbe0da4e2	-0.13832429
227	0xbd049810	-0.03237158
228	0xbe389662	-0.18026116
229	0xbd9a104e	-0.07522641
230	0xbda214d1	-0.07914127
231	0xbe3d9828	-0.18515074
232	0xbd2512dc	-0.04030119
233	0xbd4032bf	-0.046923395
234	0x3d0aee3a	0.033918597
235	0x3d835443	0.06412556
236	0xbcc20d73	-0.023688054
237	0xbe04bbd4	-0.12962276
238	0xbb5d75e9	-0.0033792204
239	0x3cba1999	0.022717284
240	0xbc1e5bf3	-0.009665477
241	0xbd40adc3	-0.047040712
242	0x3da01fbf	0.07818555
243	0xbbf677fc	-0.0075216275
244	0x3cc7af29	0.024375515
245	0x3c7c42ee	0.015396817
246	0x3cca513f	0.024696944
247	0x3c5706e8	0.013124205
248	0xbba7d00b	-0.005121236
249	0x3d597a0c	0.05309491
250	0x3b9bb8f6	0.0047522737
251	0xbb6457e0	-0.0034842417
252	0xbe6c93fd	-0.23103328
253	0xbd15842b	-0.036503
254	0xbd5ba4dc	-0.05362402
255	0xbc69d5f3	-0.014272201

res_blocks.0.bn1.weight f4 [32]
0	0x3f6efe72	0.93357
1	0x3f81696d	1.0110298
2	0x3f79bafc	0.9755094
3	0x3f60f6f6	0.8787683
4	0x3f7731fb	0.9656064
5	0x3f6d7b5c	0.92766356
6	0x3f63ba96	0.8895658
7	0x3f58ada9	0.84639984
8	0x3f6526c5	0.8951228
9	0x3f7d85c4	0.99032235
10	0x3f7386b2	0.95127404
11	0x3f810981	1.0081025
12	0x3fa4d234	1.2876649
13	0x3f745bdf	0.95452684
14	0x3f5f1ecc	0.8715637
15	0x3f8a54ae	1.0807092
16	0x3f721ccd	0.94575197
17	0x3f76a2ad	0.96341974
18	0x3f5e0f08	0.86741686
19	0x3f70462e	0.93857086
20	0x3f66cbce	0.9015473
21	0x3f7b7feb	0.9824206
22	0x3f88b291	1.0679494
23	0x3f8a1b1f	1.0789527
24	0x3f8937c0	1.0720139
25	0x3f724263	0.9463255
26	0x3f4bcf13	0.79612845
27	0x3f87ed6d	1.0619332
28	0x3f6ec967	0.93276066
29	0x3f5e1334	0.8674805
30	0x3f9740a0	1.1816597
31	0x3f624b24	0.88395905

res_blocks.0.bn1.bias f4 [32]
0	0xbe84c035	-0.25927892
1	0x3e207f59	0.1567358
2	0xbebef502	-0.372963
3	0xbe855cf9	-0.26047495
4	0x3cd24afb	0.02567052
5	0xbdb68efc	-0.08913991
6	0xbdfef55a	-0.12449141
7	0xbd082a20	-0.0332433
8	0xbd5e1ce2	-0.054226764
9	0x3c8bb057	0.017051859
10	0x3c9a8bb9	0.018865453
11	0xbefc75fe	-0.4930877
12	0xbe89c273	-0.26906165
13	0xbe9e1b73	-0.30880317
14	0xbda88fcb	-0.08230551
15	0xbe12919a	-0.14313355
16	0xbe5a4a29	-0.21317352
17	0xbe5a853e	-0.2133989
18	0x3dee5b09	0.11638457
19	0xbe07b5a9	-0.13252892
20	0xbb3b10e7	-0.002854401
21	0xbdf4b256	-0.119480774
22	0xbe010179	-0.12598218
23	0x3bbfa7fd	0.005848883
24	0x3d52b4e1	0.05144203
25	0x3d6acc82	0.05732394
26	0x3d2ae504	0.041722313
27	0xbd3d51dd	-0.04622065
28	0xbe3742b3	-0.17896537
29	0xbe157082	-0.145937
30	0x3a823f22	0.0009937028
31	0xbe87d43c	-0.2652911

res_blocks.0.bn1.running_mean f4 [32]
0	0xbc83abc1	-0.01607311
1	0xbc8859c0	-0.016644359
2	0x3c87b69b	0.016566565
3	0x3d2502cf	0.04028588
4	0xbd559d6e	-0.05215209
5	0x3c2dc45c	0.010605898
6	0x3c8c8595	0.01715354
7	0xbbec8fbb	-0.0072192824
8	0xbd5fcf51	-0.05464107
9	0xbd3483f8	-0.044071168
10	0xbdb0ce3c	-0.08633086
11	0x3cc4362d	0.023951614
12	0xbca4dc34	-0.020124532
13	0x3cdd47a0	0.027011693
14	0xbbbc3a27	-0.005744237
15	0x3cefeebe	0.029288646
16	0xbce8a5c7	-0.028399361
17	0xbce52b2d	-0.02797469
18	0xbd0ec6e7	-0.034857657
19	0xbb9b8e5f	-0.0047471966
20	0x3a895ae4	0.0010479358
21	0x3cc7b173	0.024376607
22	0xbb7b2bfb	-0.0038325775
23	0x3c7a8d4c	0.015292477
24	0x3d1bc9f3	0.03803439
25	0xbd74ac9b	-0.059734922
26	0xbdb34c95	-0.08754841
27	0x3cdbc99f	0.026829539
28	0xbcb2b158	-0.02181308
29	0x3c89c442	0.016817216
30	0xbcaeadb2	-0.021323059
31	0x3cab0e91	0.02088097

res_blocks.0.bn1.running_var f4 [32]
0	0x3c7ba5b5	0.015359332
1	0x3caac218	0.020844504
2	0x3c2d1332	0.010563659
3	0x3c3a0a68	0.01135502
4	0x3cb41a2b	0.021985134
5	0x3c9fd269	0.019509511
6	0x3cb6b7c4	0.022304423
7	0x3caafa7a	0.02087139
8	0x3cc6d14f	0.024269728
9	0x3cc276d9	0.023738312
10	0x3d2a42f8	0.041567773
11	0x3c65df92	0.014030354
12	0x3c9658fd	0.01835298
13	0x3c968ac4	0.018376715
14	0x3c8f5054	0.017494358
15	0x3c97d448	0.01853384
16	0x3ce9e376	0.028550845
17	0x3c80723a	0.015679467
18	0x3caefd09	0.021360891
19	0x3ca70b5c	0.020391159
20	0x3c97ee15	0.018546144
21	0x3c7b4d1e	0.01533821
22	0x3c9a7a5e	0.018857177
23	0x3cae9639	0.021311866
24	0x3cc934d5	0.024561325
25	0x3ceaa7c4	0.02864445
26	0x3cec890d	0.028873945
27	0x3c91890b	0.017765542
28	0x3ca85388	0.020547643
29	0x3c6a1876	0.0142880585
30	0x3c99220c	0.018692993
31	0x3c4d455d	0.0125287445

res_blocks.0.conv2.weight f4 [32, 32, 3, 3]
0	0xbca3c2c0	-0.019990325
1	0xbd88002c	-0.06640658
2	0x3e6edecf	0.23327182
3	0x3da17452	0.078835145
4	0xbda7a9cd	-0.08186684
5	0x3ca2eb75	0.019887665
6	0x3e4ecdab	0.20195644
7	0x3d8c67ca	0.06855734
8	0xbe561a05	-0.20908363
9	0xbe836322	-0.2566157
10	0xbd8c28b1	-0.06843699
11	0xbe340a71	-0.17582108
12	0xbd81011d	-0.062990405
13	0xbe2d955a	-0.16951504
14	0xbe5bd2eb	-0.21467178
15	0x3c6afc31	0.014342354
16	0xbbbe3b42	-0.005805404
17	0x3e08a935	0.13345797
18	0x3d8d12c7	0.06888347
19	0x3c2f43b0	0.01069729
20	0xbe29472b	-0.16531055
21	0xbc1149fa	-0.008867735
22	0xbd0b0c7c	-0.033947453
23	0xbd974b44	-0.07387403
24	0x3e67d9ff	0.22641753
25	0x3e45ce2d	0.19316931
26	0x3d6042f2	0.054751344
27	0xbddc0c5e	-0.10744546
28	0xbd9a0fe7	-0.075225644
29	0xbdf1743b	-0.11789747
30	0xbe187948	-0.14890015
31	0xbdcfbb52	-0.101431504
32	0x3e01e9fc	0.12686914
33	0xbd42acf8	-0.047528237
34	0xbe12c9db	-0.14334814
35	0x3e559dea	0.2086102
36	0xbe51fc4f	-0.20506404
37	0xbbb72e88	-0.0055902638
38	0x3d037097	0.032089796
39	0x3d2d0774	0.042243436
40	0xbe9a9b49	-0.30196598
41	0xbd20afeb	-0.03923027
42	0xbe065e78	-0.13121974
43	0xbd0c730b	-0.0342894
44	0xbe5f6f8e	-0.21819898
45	0xbda78c39	-0.08181042
46	0x3da3847a	0.07984252
47	0xbe31d433	-0.17366104
48	0x3c15d5bc	0.0091451965
49	0xbd0a3782	-0.033744343
50	0x3c71374e	0.014722658
51	0xbe886949	-0.26642826
52	0xbc2cc63e	-0.0105453115
53	0x3deb5990	0.11491692
54	0xbd916a70	-0.071003795
55	0x3e5f8e1e	0.21831557
56	0x3b84378b	0.0040349416
57	0x3d73d3b5	0.05952807
58	0xbcb535d2	-0.02212039
59	0x3d916668	0.070996106
60	0x3e2a589a	0.16635361
61	0xbe10ae12	-0.14128903
62	0x3e18c881	0.14920236
63	0x3d03d823	0.032188546
64	0xbe64fdb5	-0.22362407
65	0xbda63789	-0.08116061
66	0xbd941498	-0.072304904
67	0xbcc53c24	-0.024076529
68	0x3d484757	0.04889616
69	0xbd0c79aa	-0.034295715
70	0x3cbe52c1	0.02323282
71	0x3ddfef83	0.10934355
72	0xbdbc2c7f	-0.091881745
73	0x3ab2e387	0.0013648131
74	0xbc99f6ea	-0.018794496
75	0x3caf3894	0.021389283
76	0x3c8803b9	0.016603338
77	0x3d699b0d	0.057032634
78	0x3c82ab60	0.015950859
79	0xbb41c6a4	-0.0029567862
80	0x3d08bb8c	0.033381984
81	0xbcd0bd84	-0.025480993
82	0x3e228354	0.1587041
83	0x3d1ba1ed	0.03799622
84	0xbe0a585f	-0.13510273
85	0xbc7dc067	-0.015487767
86	0xbe0ae955	-0.13565572
87	0x3d07e321	0.03317559
88	0xbcb04ca2	-0.021520916
89	0xbd0af2a1	-0.033922795
90	0xbd99ddad	-0.075129844
91	0xbe84c89b	-0.259343
92	0xbe0a51bb	-0.1350774
93	0x3e561481	0.20906259
94	0xbd7dd4d3	-0.061970543
95	0xbd9a2a2a	-0.075275734
96	0x3dca97ae	0.09892212
97	0x3ea722f0	0.32643843
98	0xbe17b46b	-0.14814918
99	0xbdf46829	-0.119339295
100	0xbe10c077	-0.1413592
101	0xbd88b22c	-0.066746086
102	0xbe120cd7	-0.1426271
103	0xbdf0e4c2	-0.11762382
104	0xbe9c2708	-0.30498528
105	0xbbc8bbda	-0.0061259093
106	0xbda3e340	-0.08002329
107	0x3e063c9a	0.13109055
108	0xbd75dd6f	-0.06002563
109	0x3c5fe685	0.0136658
110	0x3ccaa62a	0.024737436
111	0xbd9d0082	-0.076661125
112	0x3ea1a917	0.31574318
113	0x3ddf2e21	0.1089747
114	0xbd151830	-0.03640002
115	0x3e6adc6f	0.22935651
116	0x3dc6c01c	0.09704611
117	0x3abfdb43	0.0014637489
118	0xbbd2a133	-0.006427908
119	0x3d781453	0.060566258
120	0x3dd518c2	0.10405113
121	0x3c87c024	0.016571112
122	0xbd511faf	-0.051055606
123	0xbdfb87b9	-0.122817464
124	0x3d9ffdbb	0.07812067
125	0x3d54e377	0.05197474
126	0xbde0148d	-0.1094142
127	0x3d111cca	0.035427846
128	0xbdaf2c05	-0.08553318
129	0xbd881f53	-0.066465996
130	0xbd159402	-0.036518104
131	0x3d906780	0.07050991
132	0x3e7a0419	0.24415626
133	0xbd73ff4b	-0.05956964
134	0x3d3fb558	0.046803802
135	0xbd63aa6a	-0.05558244
136	0x3e528ef1	0.2056234
137	0xbd87245b	-0.06598731
138	0x3d81038a	0.06299503
139	0xbd88bdfc	-0.06676862
140	0x3dcf1d7b	0.10113045
141	0x3bab1ad9	0.0052217063
142	0xbe15044a	-0.14552417
143	0xbd29dd8d	-0.041471053
144	0xbe749144	-0.2388354
145	0xbe59765c	-0.21236557
146	0xbe67a9ac	-0.22623318
147	0x3d96b2f4	0.07358351
148	0xbc8e4e6d	-0.01737138
149	0xbbbee856	-0.0058260364
150	0xbe302382	-0.17201045
151	0xbce7878c	-0.028262876
152	0x3e0a630f	0.1351435
153	0xbd878a58	-0.06618184
154	0xbc4fb6a3	-0.012677821
155	0xbe07da0d	-0.13266774
156	0xbe96b162	-0.29432207
157	0x3e258415	0.16163667
158	0xbdd0f1e6	-0.102023885
159	0x3da4b268	0.08041841
160	0x3c966ae2	0.018361513
161	0xbd87ec7e	-0.06636904
162	0xbd9d6c33	-0.07686653
163	0x3ddcc1ed	0.10779176
164	0xbd8ba423	-0.06818416
165	0xbbab940a	-0.0052361535
166	0x3ddc8d09	0.10769088
167	0xbc364586	-0.011124974
168	0x3e36be77	0.17846094
169	0x3e24a7e2	0.16079667
170	0x3dfaffb5	0.122558035
171	0xbe063e34	-0.13109666
172	0xbd4a2808	-0.049354583
173	0x3d9bc341	0.07605601
174	0x3dabb6d3	0.0838448
175	0xbda34756	-0.079725906
176	0x3e14da67	0.14536439
177	0x3c97edfd	0.018546099
178	0x3d15d9d3	0.036584686
179	0x3e138fec	0.1441037
180	0x3e013de2	0.12621263
181	0x3e9687f1	0.2940059
182	0x3e09b6c6	0.13448629
183	0xbd0f90b1	-0.035050098
184	0x3e7a1213	0.24420957
185	0xbd4de318	-0.0502654
186	0x3db40045	0.08789114
187	0x3e4cb407	0.1999055
188	0xbe18dd18	-0.1492809
189	0x3d9f2e1c	0.077724665
190	0xbe165d15	-0.14683945
191	0x3e1ab862	0.15109399
192	0x3e5c9b99	0.21543731
193	0xbd41ded4	-0.047331646
194	0xbc4945a1	-0.012284667
195	0x3e263895	0.16232522
196	0xbd9b23fa	-0.07575221
197	0xbafb8544	-0.0019189497
198	0xbe06f21f	-0.131783
199	0xbd90652d	-0.07050548
200	0x3e686409	0.2269441
201	0x3d91fc04	0.07128146
202	0x3d92eb02	0.071737304
203	0x3ce86a18	0.028370902
204	0x3ec2fd95	0.38084093
205	0xbde697f8	-0.112594545
206	0x3d9fe508	0.07807356
207	0xbe10fe9a	-0.14159623
208	0xbd7f7e45	-0.06237628
209	0xbe27c17d	-0.16382404
210	0x3dea3046	0.11434989
211	0xbde22d6a	-0.11043818
212	0xbdf2aa44	-0.11848882
213	0xbd089885	-0.03334858
214	0x3dc239fd	0.09483717
215	0x3dc06ad6	0.09395377
216	0xbe120e99	-0.14263381
217	0xbd5c831c	-0.053835973
218	0x3ccdc406	0.025117885
219	0x3b0e5a9a	0.0021721483
220	0xbe71f45e	-0.23628375
221	0xbdfe0dec	-0.12404999
222	0x3dacd2e7	0.08438664
223	0x3dae2cfd	0.085046746
224	0x3d163ac8	0.036677152
225	0xbe274151	-0.1633351
226	0x3d8ab6df	0.06773161
227	0x3dc3010e	0.095216855
228	0x3d4251e3	0.047441375
229	0xbd58c67a	-0.052923657
230	0x3d322ae6	0.043497942
231	0xbdca4f0c	-0.09878358
232	0x3d115ecd	0.0354908
233	0x3d003561	0.031300906
234	0x3dfde518	0.12397212
235	0x3c802e57	0.015647097
236	0x3df93c13	0.121696614
237	0x3db9bc0c	0.0906907
238	0xbc0fe6f3	-0.00878309
239	0x3bd11ec9	0.0063818437
240	0xbd2dc18b	-0.042420905
241	0x3c8d6ff5	0.0172653
242	0x3dcbad89	0.099452086
243	0x3d3e9ec4	0.04653813
244	0x3dcea822	0.100906625
245	0xbd2b42b9	-0.04181168
246	0xbc3ef26e	-0.011654479
247	0xbc4a0572	-0.0123304
248	0xbb7057b2	-0.0036673364
249	0x3cfc87af	0.030826418
250	0xbda0419c	-0.07825014
251	0x3e167c0d	0.14695759
252	0xbe83a7ad	-0.25713864
253	0xbe1ec6b0	-0.15505481
254	0xbca00e70	-0.019538134
255	0xbe416db9	-0.18889512

res_blocks.0.bn2.weight f4 [32]
0	0x3f795661	0.9739743
1	0x3f6a9794	0.9163754
2	0x3f8d5a3f	1.1043166
3	0x3f796968	0.9742646
4	0x3f92fb1d	1.1482884
5	0x3f58c42b	0.8467433
6	0x3fa3c9fc	1.2796016
7	0x3f5ce9a9	0.8629404
8	0x3f874a63	1.0569576
9	0x3f884da0	1.0648689
10	0x3f92473d	1.142799
11	0x3f69ffda	0.91406024
12	0x3f8fee1d	1.1244541
13	0x3f7e9809	0.9945074
14	0x3f428f9d	0.76000386
15	0x3f9220ac	1.1416221
16	0x3f1be0d6	0.6088995
17	0x3f9a8855	1.2072855
18	0x3f830404	1.02356
19	0x3f801f36	1.0009525
20	0x3f8226f3	1.0168136
21	0x3f923672	1.1422865
22	0x3f67340a	0.9031378
23	0x3f92cd40	1.1468887
24	0x3f48726d	0.782996
25	0x3f965c5c	1.1746936
26	0x3f83b229	1.0288745
27	0x3fa7d7ee	1.3112772
28	0x3f642d5b	0.89131707
29	0x3f695ead	0.9116009
30	0x3f635224	0.8879721
31	0x3f46d822	0.7767354

res_blocks.0.bn2.bias f4 [32]
0	0xbc1e0f4e	-0.009647204
1	0x3d99051f	0.0747168
2	0x3db49957	0.0881831
3	0x3c735424	0.014851604
4	0xbda0254d	-0.078196146
5	0xbdfbffa2	-0.123046175
6	0xbe2fe724	-0.17178017
7	0x3cd0ee75	0.02550433
8	0xbe528246	-0.20557508
9	0xbf036d68	-0.51338816
10	0xbdaf88af	-0.08570992
11	0xbd710276	-0.058840238
12	0xbe173c26	-0.14769039
13	0xbe6a34c1	-0.22871687
14	0xbe1d28e4	-0.1534763
15	0xbea81884	-0.32831204
16	0xbf025f7c	-0.5092695
17	0xbe14482b	-0.14480655
18	0xbe937547	-0.28800413
19	0x3d788746	0.06067588
20	0xbf1cf571	-0.61312014
21	0xbe633f62	-0.22192147
22	0xbe207cbf	-0.15672587
23	0xbe3e9583	-0.18611722
24	0xbecdbce9	-0.4018319
25	0xbbdabc33	-0.006675267
26	0xbe0c37ef	-0.13693212
27	0xbf2d1d5c	-0.67622924
28	0xbde51634	-0.111858755
29	0x3e37ddd0	0.17955709
30	0x3e63da23	0.22251181
31	0xbe94ced9	-0.29064062

res_blocks.0.bn2.running_mean f4 [32]
0	0xbed38807	-0.41314718
1	0xbe7cc784	-0.24685484
2	0x3ec8b04c	0.39197004
3	0xbdd59c5c	-0.10430214
4	0xbee71891	-0.4513593
5	0x3e87db30	0.26534414
6	0xbf8bab60	-1.0911674
7	0x3e33ffaf	0.17578004
8	0xbe2e00c6	-0.16992483
9	0xbf54ffd2	-0.8320285
10	0xbfdb4fdb	-1.7133745
11	0xbeb59911	-0.35468343
12	0xbeda4244	-0.42628682
13	0x3f111671	0.5667487
14	0x3f8b61b3	1.088919
15	0xbd868a72	-0.06569375
16	0x3d084129	0.033265267
17	0xbed6ad84	-0.41929257
18	0xbfbb26da	-1.4621232
19	0x3d94c986	0.07265
20	0xbf2f8f9e	-0.6857852
21	0xbef075c3	-0.46964845
22	0x3e88278a	0.26592666
23	0x3f110365	0.56645805
24	0xbf96a854	-1.177012
25	0xbc91ec49	-0.017812865
26	0xbfa33d04	-1.2752995
27	0xbfa336d4	-1.2751107
28	0x3ed9f06c	0.4256624
29	0x3f1fb07b	0.6237866
30	0x3e1d088d	0.15335293
31	0xbf31494a	-0.69252455

res_blocks.0.bn2.running_var f4 [32]
0	0x3fc3daef	1.5301188
1	0x3fe8dfb7	1.8193272
2	0x40389985	2.88437
3	0x3fc8cf5f	1.5688285
4	0x400cb01b	2.1982486
5	0x3fd944f0	1.6974163
6	0x3fb8ce23	1.4437908
7	0x3fb7ec1f	1.4368933
8	0x3fe6c2af	1.8028163
9	0x3fd0533a	1.6275399
10	0x4020abe7	2.510492
11	0x3fd47473	1.6598037
12	0x4015304d	2.331073
13	0x3fd7cf5e	1.6860158
14	0x3fe91838	1.8210516
15	0x3fcf187b	1.6179346
16	0x3f9967af	1.1984767
17	0x3f8aabc9	1.0833675
18	0x3ff17799	1.8864623
19	0x3ff8d792	1.9440787
20	0x3fb96ad6	1.4485729
21	0x4000b4bf	2.0110319
22	0x3fa55255	1.2915751
23	0x4019bdcd	2.4022095
24	0x3fdf70dc	1.7456317
25	0x3ff329ac	1.8997092
26	0x4007ddb7	2.1229074
27	0x3f9c51d4	1.2212472
28	0x3fe5338c	1.7906356
29	0x3fe4b6a7	1.7868241
30	0x3ffe98bb	1.989036
31	0x3fc96f42	1.5737078

res_blocks.0.downsample.0.weight f4 [32, 14, 1, 1]
0	0xbc928f69	-0.017890649
1	0xbdf6ad78	-0.12044805
2	0xbdba547b	-0.090981446
3	0xbe8b0778	-0.27154136
4	0xbead128e	-0.3380322
5	0x3e0a37b7	0.13497816
6	0xbe74981c	-0.2388615
7	0xbee52569	-0.44755104
8	0xbec157a4	-0.37762177
9	0xbe0c595b	-0.13705961
10	0x3d6393ca	0.055560865
11	0x3e15c3b3	0.14625435
12	0xbeb7fe94	-0.35936415
13	0x3e7dad54	0.2477315
14	0x3e61ed5d	0.22063203
15	0xbd74382f	-0.059623893
16	0xbe5385b1	-0.20656468
17	0x3dbbac21	0.0916369
18	0xbe171935	-0.1475571
19	0xbe9b4d6e	-0.30332512
20	0xbe9c5622	-0.30534464
21	0x3eb241ea	0.34815913
22	0x3e7e51bf	0.24835871
23	0xbee708ae	-0.4512381
24	0xbec1b6fd	-0.3783492
25	0x3df27624	0.1183894
26	0x3e1ecdab	0.15508144
27	0xbde244d2	-0.11048283
28	0x3de6fe8e	0.11279021
29	0x3c9ac4ac	0.018892609
30	0x3e1da07d	0.15393253
31	0xbd1c2a27	-0.038126137
32	0x3e772c9b	0.2413811
33	0x3e1f274c	0.15542334
34	0xbee93c5a	-0.45553857
35	0x3e65b9af	0.22434114
36	0xbe23ec83	-0.16008191
37	0xbe59345c	-0.2121138
38	0xbe4eb76a	-0.20187154
39	0xbf0c50d4	-0.54810834
40	0xbc9692a9	-0.01838048
41	0xbdf14081	-0.11779881
42	0x3a924633	0.0011159837
43	0xbe8bb44e	-0.27286
44	0xbe1def07	-0.15423213
45	0xbd496f40	-0.049178362
46	0xbe94722a	-0.2899335
47	0x3dc99932	0.09843673
48	0x3dd4e8c1	0.10395957
49	0xbd2651fc	-0.04060553
50	0x3e90c704	0.28276837
51	0xbed8e1fe	-0.42359918
52	0x3f064931	0.5245543
53	0x3cf9626f	0.030442445
54	0x3d94402d	0.07238803
55	0xbe927cdc	-0.28610885
56	0xbe870372	-0.26369816
57	0xbedb99e6	-0.42890853
58	0xbe5ec283	-0.21753888
59	0x3e63e025	0.22253473
60	0x3ddc4fd3	0.10757413
61	0x3e5854e6	0.21126136
62	0xbe557104	-0.20843893
63	0x3e7b92db	0.2456774
64	0xbe0d5980	-0.13803673
65	0xbea9055d	-0.33011904
66	0xbecb3285	-0.3968698
67	0xbe745183	-0.23859219
68	0x3ca7e9e3	0.020497268
69	0xbc665276	-0.014057746
70	0xbe85b6e9	-0.26116112
71	0xbed5f7f8	-0.41790748
72	0xbe668de4	-0.22515064
73	0x3e489cd4	0.19591075
74	0xbdbea531	-0.093088515
75	0xbc17d4cd	-0.009267044
76	0xbdb25121	-0.0870688
77	0x3ee73339	0.45156267
78	0x3ea276ef	0.31731364
79	0xbd4e2c63	-0.0503353
80	0x3d386e4e	0.04502707
81	0x3da15dcc	0.078792185
82	0xbe0677c7	-0.13131629
83	0x3d2902c7	0.041262414
84	0x3e8262c8	0.2546599
85	0x3cc2b4be	0.023767825
86	0xbc59cbe2	-0.013293238
87	0xbe16b0f3	-0.14715938
88	0xbe38ec13	-0.18058805
89	0xbd902988	-0.070391715
90	0x3e40e41b	0.18837015
91	0xbe84ef9a	-0.2596405
92	0x3dacf6ef	0.08445536
93	0x3eedcd68	0.46445775
94	0x3d5249b4	0.05133982
95	0x3d465cf1	0.04842848
96	0x3e4f08ec	0.20218247
97	0xbe8d1fc3	-0.27563295
98	0x3e519ef1	0.20470788
99	0xbe517ce0	-0.20457792
100	0xbdced29b	-0.100987636
101	0xbea11bd2	-0.31466538
102	0xbd708c70	-0.05872768
103	0x3df6c67c	0.12049577
104	0x3cb5ada0	0.022177517
105	0xbe28f08b	-0.1649801
106	0x3eef51fd	0.4674224
107	0xbdcd9d16	-0.100397274
108	0x3e501125	0.2031904
109	0x3cbafadd	0.022824699
110	0xbea60101	-0.3242264
111	0xbdec69ef	-0.11543643
112	0xbe392c32	-0.18083265
113	0xbe5bbb3a	-0.2145814
114	0x3d9a21a4	0.07525948
115	0xbde6cc30	-0.112694144
116	0x3e8e72fe	0.27822107
117	0x3d8f64c5	0.07001642
118	0xbe09463a	-0.13405696
119	0xbea1946d	-0.31558552
120	0xbe4cf22a	-0.20014253
121	0xbec66cfc	-0.38755023
122	0xbe51dd75	-0.20494635
123	0xbec26bb3	-0.37972793
124	0xbe5429c9	-0.20719065
125	0x3d47d93f	0.048791166
126	0xbe1e9da0	-0.15489817
127	0xbe0b6c98	-0.13615644
128	0xbde121e7	-0.109927945
129	0xbe3da47c	-0.18519777
130	0xbdbfe398	-0.09369582
131	0x3e199f4a	0.1500217
132	0xbe9acb93	-0.3023344
133	0x3eaf2137	0.34205028
134	0x3e8b6036	0.2722184
135	0x3d2c17d4	0.04201491
136	0x3e3927ca	0.18081585
137	0x3e4098a1	0.18808223
138	0x3e66f5c0	0.22554684
139	0xbc36b231	-0.011150883
140	0xbea12217	-0.3147132
141	0xbe1e1965	-0.15439375
142	0xbe4ff84e	-0.20309564
143	0xbda4d367	-0.08048134
144	0x3e8616ca	0.26189262
145	0x3ea51293	0.32240734
146	0x3def618c	0.116885275
147	0xbd9a9659	-0.07548208
148	0xbdf4d627	-0.11954909
149	0x3cfbe939	0.030750858
150	0xbd4e811d	-0.0504161
151	0xbd87982c	-0.06620821
152	0x3e006d34	0.12541658
153	0x3e14a6a2	0.1451669
154	0x3e3881a1	0.180182
155	0x3c4df611	0.012570874
156	0x3dfc47f9	0.12318415
157	0x3e5263b2	0.20545843
158	0x3d85c52e	0.0653175
159	0x3d759a7e	0.05996179
160	0xbdfd7a2d	-0.12376819
161	0xbec9a0f9	-0.39380625
162	0xbe5dd1fc	-0.21662134
163	0x3db3d3b0	0.087806106
164	0xbe5c5a0d	-0.21518727
165	0xbcc8e40d	-0.024522806
166	0xbed452fe	-0.41469568
167	0xbc00c50c	-0.00785948
168	0x3ea73715	0.32659212
169	0x3ea808f6	0.32819337
170	0x3e3b94cb	0.18318479
171	0x3e9ae843	0.30255327
172	0xbe4f9f99	-0.20275725
173	0xbd07138b	-0.032977622
174	0xbda4cadc	-0.08046505
175	0x3deef27c	0.11667344
176	0xbd57109d	-0.052506078
177	0x3e3853c9	0.18000712
178	0xbcbdbd32	-0.023161504
179	0xbe57d453	-0.21077089
180	0xbe491b53	-0.1963933
181	0x3dd3b602	0.103374496
182	0xbd5b37d2	-0.05352003
183	0xbe36f59e	-0.17867133
184	0x3e9ab9b3	0.30219802
185	0x3d1681f2	0.03674502
186	0x3e959a09	0.29219082
187	0xbe8948bc	-0.26813304
188	0xbbd7b1c8	-0.0065824725
189	0xbe04a3a5	-0.1295305
190	0xbd2f1569	-0.042745028
191	0xbd58a679	-0.052893136
192	0xbbf2c228	-0.007408399
193	0x3e133eec	0.14379472
194	0x3ebb1fca	0.3654769
195	0xbe50d109	-0.2039224
196	0x3e5066e4	0.2035175
197	0xbd4c3e57	-0.04986414
198	0x3dabe80e	0.0839387
199	0xbdc16cac	-0.09444556
200	0xbeab4afd	-0.3345565
201	0x3e895561	0.2682295
202	0x3e92922a	0.2862714
203	0xbd9251e5	-0.071445264
204	0x3ce8cafa	0.0284171
205	0x3d866b6f	0.0656346
206	0xbe4e8616	-0.20168337
207	0xbe747b2f	-0.23875116
208	0x3c917cd8	0.017759725
209	0x3d13dad0	0.036097348
210	0x3dfb45ae	0.1226915
211	0x3d03d56a	0.03218595
212	0x3df52f0a	0.119718626
213	0x3d36b627	0.044607308
214	0xbc194db5	-0.009356906
215	0xbddaf654	-0.106915146
216	0x3cb81b2f	0.0224739
217	0x3e7347ff	0.23757933
218	0xbf04bc60	-0.5184994
219	0xbd80932c	-0.06278071
220	0xbe800af4	-0.25008357
221	0xbefe55d2	-0.4967485
222	0xbdfef86c	-0.124497265
223	0x3e1ebcbc	0.15501684
224	0xbc9dc2cb	-0.019257924
225	0xbd704fa8	-0.058669716
226	0xbc464c4f	-0.012103154
227	0x3c29ac20	0.010355979
228	0x3ca4d277	0.020119889
229	0xb9d6e233	-0.00040985792
230	0x3d9fa6ad	0.07795463
231	0x3eaf0e8c	0.34190786
232	0xbe24e8ff	-0.16104506
233	0x3ebc2dc3	0.36753663
234	0x3ebeb65c	0.37248504
235	0x3e9488d9	0.29010656
236	0xbb95df21	-0.004573718
237	0xbbdd7cb0	-0.0067592487
238	0xbd3c45b6	-0.04596492
239	0xbe5e2b52	-0.21696213
240	0xbe5e5749	-0.21712984
241	0xbe0b60c9	-0.1361114
242	0xbebc1c54	-0.36740363
243	0xbe00fa00	-0.12595367
244	0x3e44b74c	0.19210547
245	0x3ee04520	0.43802738
246	0x3e6dcfeb	0.23223846
247	0x3e0f9372	0.1402109
248	0x3e0c4cf8	0.13701236
249	0xbe8e7657	-0.2782466
250	0x3d7a1d6b	0.06106321
251	0x3e6788f4	0.22610837
252	0x3e5305ec	0.20607728
253	0x3e9caa95	0.30598894
254	0x3e5b8f8d	0.21441479
255	0x3ea8612f	0.32886645

res_blocks.0.downsample.1.weight f4 [32]
0	0x3f536110	0.8256998
1	0x3f6cda7d	0.92520887
2	0x3f28292d	0.6568783
3	0x3f3b5b07	0.7318577
4	0x3f993060	1.1967888
5	0x3f3aeb63	0.7301542
6	0x3f4c81a1	0.798853
7	0x3f4ef649	0.8084455
8	0x3f4f8528	0.81062555
9	0x3f696730	0.91173077
10	0x3f50eb1d	0.81608754
11	0x3f6135c4	0.87972665
12	0x3f5e3ca2	0.8681127
13	0x3f5216c4	0.8206599
14	0x3f761e17	0.96139663
15	0x3f2a77d2	0.6658908
16	0x3f9adf68	1.2099428
17	0x3f598424	0.84967256
18	0x3f9946b8	1.1974707
19	0x3f3c79d7	0.7362341
20	0x3f7bb11f	0.9831714
21	0x3f18f25c	0.5974481
22	0x3f3fb3ce	0.74883735
23	0x3f52f45c	0.8240411
24	0x3f8a3a63	1.0799068
25	0x3f5ae6fb	0.855087
26	0x3f6ae9b4	0.9176285
27	0x3f7d2d92	0.9889766
28	0x3f73b315	0.9519513
29	0x3f75af02	0.95970166
30	0x3f85013e	1.0391004
31	0x3f75823c	0.95901847

res_blocks.0.downsample.1.bias f4 [32]
0	0xbc1e0f4e	-0.009647204
1	0x3d99051f	0.0747168
2	0x3db49957	0.0881831
3	0x3c735424	0.014851604
4	0xbda0254d	-0.078196146
5	0xbdfbffa2	-0.123046175
6	0xbe2fe724	-0.17178017
7	0x3cd0ee75	0.02550433
8	0xbe528246	-0.20557508
9	0xbf036d68	-0.51338816
10	0xbdaf88af	-0.08570992
11	0xbd710276	-0.058840238
12	0xbe173c26	-0.14769039
13	0xbe6a34c1	-0.22871687
14	0xbe1d28e4	-0.1534763
15	0xbea81884	-0.32831204
16	0xbf025f7c	-0.5092695
17	0xbe14482b	-0.14480655
18	0xbe937547	-0.28800413
19	0x3d788746	0.06067588
20	0xbf1cf571	-0.61312014
21	0xbe633f62	-0.22192147
22	0xbe207cbf	-0.15672587
23	0xbe3e9583	-0.18611722
24	0xbecdbce9	-0.4018319
25	0xbbdabc33	-0.006675267
26	0xbe0c37ef	-0.13693212
27	0xbf2d1d5c	-0.67622924
28	0xbde51634	-0.111858755
29	0x3e37ddd0	0.17955709
30	0x3e63da23	0.22251181
31	0xbe94ced9	-0.29064062

res_blocks.0.downsample.1.running_mean f4 [32]
0	0xbc9b1cd5	-0.018934647
1	0x3b134960	0.0022474155
2	0xbccdf39a	-0.025140572
3	0xbce31e7f	-0.027724503
4	0xbc0ed769	-0.00871835
5	0xbc8a2121	-0.0168615
6	0xbb359d8f	-0.002771232
7	0xbd53b07b	-0.051681977
8	0xbd0201f5	-0.031740148
9	0x3cbf17fd	0.023326868
10	0x3d02989e	0.03188383
11	0xbd4329ee	-0.04764741
12	0xbbbec920	-0.005822316
13	0x3c9ec282	0.019379858
14	0x3c552946	0.013010329
15	0xbb2f9011	-0.002678875
16	0x3bab29ff	0.005223512
17	0x3ce3c6ce	0.027804758
18	0x3c915e84	0.017745264
19	0xbd40a9c7	-0.047036912
20	0x3b166c7e	0.002295285
21	0x3d46fffe	0.048583977
22	0xbcaf377b	-0.02138876
23	0x3d060532	0.0327198
24	0x3c7fe07c	0.015617486
25	0xbd4395e6	-0.047750376
26	0x3d433b83	0.047664177
27	0x3cc0006c	0.023437701
28	0x3c6d13d4	0.014470059
29	0xbc144d4a	-0.00905163
30	0xbd04300b	-0.03227238
31	0x3d3528c5	0.044228334

res_blocks.0.downsample.1.running_var f4 [32]
0	0x3cc39d24	0.023878641
1	0x3c14ac97	0.009074352
2	0x3c2213d6	0.009892425
3	0x3c385a83	0.011252048
4	0x3baa7503	0.005201937
5	0x3b9c6899	0.004773211
6	0x3c7a4fee	0.015277846
7	0x3c82a1f4	0.015946366
8	0x3c143423	0.0090456335
9	0x3c111a5c	0.008856382
10	0x3c0e8c73	0.008700478
11	0x3ca81b92	0.020520959
12	0x3c28e89f	0.010309367
13	0x3cb5f088	0.02220942
14	0x3b9b5acc	0.0047410484
15	0x3c19dd93	0.009391206
16	0x3b07017c	0.002060025
17	0x3c1c45f2	0.009538161
18	0x3b5087d8	0.003181925
19	0x3c5e30b7	0.013561419
20	0x3b1974cc	0.0023415564
21	0x3ca722e4	0.02040238
22	0x3c6546f8	0.013993971
23	0x3c49c333	0.0123146055
24	0x3b7638f0	0.0037570558
25	0x3c3f40db	0.011673178
26	0x3c99d7fc	0.018779747
27	0x3ba3cfa9	0.0049991203
28	0x3c50db21	0.012747557
29	0x3bc6f783	0.006071986
30	0x3c1cd681	0.009572626
31	0x3c3e4b78	0.011614673

res_blocks.1.conv1.weight f4 [64, 32, 3, 3]
0	0xbda76da8	-0.08175212
1	0xbe1afb74	-0.15134984
2	0xbd68226d	-0.056673456
3	0x3ceaa8be	0.028644916
4	0xbd4885e8	-0.048955828
5	0xbd5f785c	-0.054558143
6	0x3eda04cd	0.42581788
7	0x3e60ba27	0.21946011
8	0xbcbee7e9	-0.023303943
9	0xbe1d4793	-0.15359335
10	0xbe0ed40f	-0.13948081
11	0x3bdbb368	0.0067047365
12	0xbda5b882	-0.08091833
13	0xbe5f9f0e	-0.21838018
14	0xbd8735e1	-0.066020735
15	0x3d6beb9a	0.057597734
16	0xbe8c814c	-0.27442396
17	0xbd8a6a91	-0.06758607
18	0xbe33e340	-0.17567158
19	0x3cfa5725	0.030559132
20	0xbc07eda9	-0.008296409
21	0xbd318c19	-0.0433465
22	0xbdf7718b	-0.120822035
23	0xbe0c3cbd	-0.13695045
24	0xbd81360c	-0.06309137
25	0x3e404486	0.1877614
26	0x3d25ad2a	0.040448345
27	0xbea53002	-0.3226319
28	0xbd5cff49	-0.053954396
29	0xbda32ec7	-0.079679064
30	0xbdabd110	-0.08389485
31	0x3d2edcf1	0.042691175
32	0xbd3fc0ee	-0.04681485
33	0x3ed469ff	0.4148712
34	0xbd173535	-0.036915977
35	0xbe32eee5	-0.17473944
36	0x3d1a2ac6	0.03763845
37	0x3e1b372b	0.15157764
38	0x3e1d09ed	0.15335818
39	0x3d945e77	0.0724458
40	0x3e541c5d	0.20713945
41	0x3d401c86	0.046902202
42	0x3dcdd785	0.10050873
43	0x3d736c56	0.05942949
44	0x3e1499ae	0.14511749
45	0xbe0e7c6f	-0.13914655
46	0x3cd2fc4e	0.025755074
47	0xbcf3dd90	-0.029768735
48	0x3dbd5dcc	0.09246406
49	0xbd12a55c	-0.03580223
50	0x3d03c0bf	0.03216624
51	0x3e6c66d8	0.23086107
52	0x3d94ece2	0.07271744
53	0x3e6b8b25	0.23002298
54	0x3cfdaf22	0.030967299
55	0x3e0facac	0.14030713
56	0x3dd56f51	0.104216225
57	0xbe3bb605	-0.18331154
58	0xbe22d5df	-0.15901898
59	0xbe95ec7d	-0.2928199
60	0xbe5492bc	-0.207591
61	0xbe60aaa6	-0.21940097
62	0xbdd289a4	-0.10280159
63	0xbe061411	-0.13093592
64	0xbdd6f74b	-0.10496386
65	0x3dfc6690	0.1232425
66	0xbe0950b2	-0.13409689
67	0xbde14262	-0.1099899
68	0xbc0b384e	-0.008497311
69	0x3e099ae7	0.13437997
70	0x3bb3cd0b	0.0054870895
71	0x3cd06687	0.025439514
72	0xbd849a48	-0.06474739
73	0xbd6e8aec	-0.058237955
74	0xbd509e7a	-0.050932385
75	0xbba2e3d7	-0.0049710083
76	0xbde736ca	-0.11289747
77	0xbcb93fa4	-0.022613354
78	0x3e2b38d2	0.16720894
79	0xbe3f7751	-0.1869786
80	0xbb7b7fa5	-0.0038375643
81	0xbdeb1d78	-0.1148023
82	0xbd28f550	-0.041249573
83	0xbda9a5b9	-0.08283562
84	0x3e7be4ab	0.24598949
85	0xbdcc7c32	-0.09984626
86	0xbd7a6f37	-0.06114122
87	0x3de36bb9	0.11104531
88	0xbd2a2523	-0.041539323
89	0x3dc29b74	0.095023066
90	0x3deec566	0.116587445
91	0xbdaed975	-0.085375704
92	0xbd0731fb	-0.03300665
93	0x3d204bc1	0.039134745
94	0xbde09c86	-0.109673545
95	0xbd7ce881	-0.06174517
96	0xbec2aed9	-0.38024023
97	0xbd3204cc	-0.043461606
98	0xbe27c422	-0.16383412
99	0xbd86f4a2	-0.06589629
100	0x3d1d7666	0.03844299
101	0x3e2f70bd	0.1713285
102	0x3d7774a8	0.060413986
103	0x3c1a0599	0.009400749
104	0xbdb6d757	-0.089277916
105	0x3dc943f6	0.09827416
106	0x3e797567	0.24361192
107	0x3dcbd24d	0.09952221
108	0x3de7688e	0.11299239
109	0x3d35425a	0.04425273
110	0x3e001915	0.12509568
111	0x3d544ce4	0.05183114
112	0x3dd2d99d	0.10295413
113	0x3e73406a	0.23755041
114	0xbb2a9e86	-0.0026034429
115	0xbdf49aed	-0.11943612
116	0xbdedf817	-0.11619585
117	0xbe003c27	-0.12522946
118	0x3e25711a	0.16156426
119	0x3d3143ca	0.04327754
120	0xbdcb1af4	-0.0991725
121	0xbe31c3a3	-0.17359786
122	0xbdff2127	-0.12457495
123	0x3c90da03	0.017682081
124	0xbd381b15	-0.044947702
125	0x3d99dcc9	0.075128146
126	0xbe0990a0	-0.13434076
127	0xbc464a98	-0.0121027455
128	0xbdfd7eeb	-0.12377723
129	0xbde3489b	-0.11097833
130	0x3d0fd2ac	0.03511302
131	0x3e3d63d0	0.18495107
132	0x3e0b92b1	0.13630177
133	0x3e444f1e	0.19170806
134	0xbda38069	-0.07983477
135	0x3d0ad0d3	0.033890557
136	0x3cee6e4a	0.029105324
137	0x3cb17b52	0.021665249
138	0xbc7976f4	-0.015226115
139	0x3d4e9403	0.050434124
140	0xbd4d6fed	-0.05015557
141	0xbd19d373	-0.03755517
142	0x3d4cc67a	0.04999397
143	0x3e25bc0f	0.1618502
144	0x3d480708	0.04883483
145	0x3c2f6e1d	0.010707405
146	0xbd99937b	-0.07498833
147	0x3ba68594	0.0050818417
148	0xbd6a7327	-0.057238724
149	0xbd82613d	-0.06366203
150	0xbe338b15	-0.17533524
151	0xbd7cee46	-0.061750673
152	0xba19a2b5	-0.0005860732
153	0x3dc49a22	0.09599711
154	0x3d00f2fd	0.03148173
155	0xbdb953f6	-0.090492174
156	0x3e47020d	0.19434376
157	0x3e395b6e	0.18101284
158	0x3c8cd244	0.017190106
159	0x3edb125a	0.4278744
160	0xbd817c4a	-0.063225344
161	0x3db4267d	0.087964036
162	0xbdbcf309	-0.09226043
163	0x3deb9fc2	0.11505081
164	0x3d01d0f9	0.031693432
165	0x3da9875b	0.0827777
166	0xbe1b4f00	-0.15166855
167	0x3df0c10f	0.11755573
168	0xbc2f526a	-0.010700801
169	0x3d7f91d0	0.062394917
170	0xbd9a3981	-0.07530499
171	0x3e563ea6	0.20922336
172	0xbdba2610	-0.09089291
173	0xbd1b7b48	-0.037959367
174	0xbcb565ee	-0.02214333
175	0xbd8562d4	-0.065129906
176	0xbdcbab30	-0.09944761
177	0x3e0b5002	0.1360474
178	0xbdb9d579	-0.0907392
179	0xbe55c25a	-0.2087492
180	0x3dac9e49	0.08428628
181	0x3da56b3d	0.08077095
182	0x3df23ab4	0.11827603
183	0xbdf203b6	-0.11817114
184	0xbdecefd6	-0.115691826
185	0x3dd7504d	0.10513363
186	0x3df5b867	0.119980626
187	0xbc040c7f	-0.00805962
188	0xbdb80eb7	-0.08987182
189	0xbe133e3b	-0.14379208
190	0xbded229b	-0.11578866
191	0x3c810dbc	0.01575362
192	0xbdfd4967	-0.12367516
193	0xbc879a0f	-0.016552953
194	0x3dbfeddf	0.09371542
195	0x3d1564db	0.036473136
196	0x3d997d11	0.07494558
197	0x3dfff00a	0.12496956
198	0xbd51bae8	-0.05120364
199	0xbc244e23	-0.010028395
200	0xbd61202a	-0.054962315
201	0x3e65bbff	0.22434996
202	0xbd9b564d	-0.0758482
203	0xbd6cde8b	-0.05782942
204	0x3e2c40a0	0.16821527
205	0xbeb63d5d	-0.3559369
206	0xbe0e676f	-0.13906644
207	0x3df79fbe	0.12091015
208	0x3c3d26e1	0.011544914
209	0x3dd51ed6	0.10406272
210	0x3d303ea2	0.04302848
211	0xbe389186	-0.18024263
212	0xbe492feb	-0.19647186
213	0x3e36f434	0.17866594
214	0x3da89950	0.08232367
215	0xbda59e2c	-0.080868095
216	0xbd032189	-0.032014403
217	0x3c71e5a4	0.014764223
218	0xbb9ea92d	-0.0048419447
219	0xbd2970aa	-0.04136721
220	0x3d5d5c75	0.054043252
221	0x3d8e0a36	0.06935541
222	0xbc5d6c09	-0.013514527
223	0xbd354fc8	-0.04426554
224	0xbe4262ea	-0.18983045
225	0xbd9e9f68	-0.07745248
226	0x3d1c308d	0.03813224
227	0x3ce4fb22	0.02795178
228	0xbe26a6e9	-0.16274609
229	0x3d41ac93	0.04728372
230	0xbcd935a9	-0.026514845
231	0xbe623947	-0.22092162
232	0x3e3dd515	0.18538316
233	0x3e246520	0.16054201
234	0x3d048d09	0.032361064
235	0xbe1a4e0f	-0.1506884
236	0xbc56bbe5	-0.013106321
237	0xbc9c578e	-0.019084718
238	0xbd56695a	-0.052346565
239	0xbd6087ab	-0.054816883
240	0xbe2f698b	-0.17130105
241	0x3e35377f	0.17696951
242	0x3e3b2a85	0.18277939
243	0xbe9bd9ab	-0.30439505
244	0x3da774ac	0.0817655
245	0xbe2af522	-0.16695073
246	0xbe457473	-0.19282703
247	0x3dc5afcd	0.09652672
248	0x3e30ffec	0.17285126
249	0x3e21a856	0.15786871
250	0x3db383b6	0.08765356
251	0xbe103849	-0.14083971
252	0xbe5e15cd	-0.21688004
253	0xbc1625f9	-0.009164327
254	0x3e1d8f93	0.153868
255	0xbe4f87c2	-0.20266631

res_blocks.1.bn1.weight f4 [64]
0	0x3f6a76d2	0.91587555
1	0x3fab6982	1.3391573
2	0x3f7889d4	0.9708531
3	0x3f36fe84	0.7148211
4	0x3f516b05	0.81803924
5	0x3f534c02	0.82537854
6	0x3f793fa6	0.97362745
7	0x3f460306	0.77348363
8	0x3f87fdb9	1.0624305
9	0x3f5fee2b	0.8747279
10	0x3f85f39d	1.046497
11	0x3f4cae83	0.79953784
12	0x3f603001	0.8757325
13	0x3f583646	0.84457815
14	0x3f76c58a	0.9639517
15	0x3f6f9f64	0.93602586
16	0x3f4d0588	0.80086565
17	0x3f3e7ed6	0.74412286
18	0x3f5e041f	0.8672504
19	0x3f90e106	1.1318672
20	0x3f77018e	0.9648675
21	0x3f59ef15	0.85130435
22	0x3f8ad3e6	1.0845916
23	0x3f5e7e6e	0.86911666
24	0x3f816ba0	1.011097
25	0x3f42d0ed	0.76100045
26	0x3f7b509a	0.98169863
27	0x3f411f97	0.7543883
28	0x3f6bdb26	0.9213127
29	0x3f567b2b	0.8378169
30	0x3f570a79	0.84000355
31	0x3f74b62f	0.9559049
32	0x3f33dcff	0.7025909
33	0x3f767208	0.9626775
34	0x3fa080ad	1.2539269
35	0x3f6ab791	0.9168635
36	0x3f5b272b	0.8560664
37	0x3f512666	0.81699216
38	0x3f486650	0.78281116
39	0x3f598abd	0.8497732
40	0x3f6ee4ca	0.93317854
41	0x3f71af79	0.94408375
42	0x3f372fd3	0.7155735
43	0x3f69f02b	0.9138209
44	0x3f8da723	1.1066631
45	0x3f4667b8	0.7750201
46	0x3f3b07ed	0.7305897
47	0x3f6037a0	0.87584877
48	0x3f63526e	0.8879765
49	0x3f5570cb	0.83375233
50	0x3f3a88fa	0.7286526
51	0x3f6d38f9	0.9266506
52	0x3f62b632	0.8855926
53	0x3f498427	0.78717273
54	0x3f5cfba8	0.86321497
55	0x3f44e49b	0.76911324
56	0x3f2b432b	0.66899365
57	0x3f58c905	0.8468173
58	0x3f50f338	0.8162112
59	0x3f61cc0a	0.88201964
60	0x3f6eadbf	0.93233865
61	0x3f51e1e2	0.81985295
62	0x3f52130b	0.8206031
63	0x3f46ad28	0.77607965

res_blocks.1.bn1.bias f4 [64]
0	0xbeb0c7d8	-0.3452747
1	0xbf3de3e1	-0.7417584
2	0xbef21109	-0.47278622
3	0xbeb01e68	-0.34398198
4	0xbe401c9d	-0.18760915
5	0xbea1aceb	-0.31577238
6	0xbf3ac616	-0.72958505
7	0xbf0e882e	-0.55676544
8	0xbe8d5403	-0.27603158
9	0xbe1a1406	-0.15046701
10	0xbf053279	-0.5203014
11	0xbedd3de5	-0.43211284
12	0xbe849e9c	-0.2590226
13	0xbe487531	-0.19575955
14	0xbe355a18	-0.1771015
15	0xbf0dc00a	-0.55371153
16	0xbedb340f	-0.42813155
17	0xbeeec5a7	-0.46635172
18	0xbe55397b	-0.20822708
19	0xbf732bd9	-0.9498878
20	0xbe96634c	-0.29372633
21	0xbe9a561b	-0.30143818
22	0xbf201cd7	-0.62544006
23	0xbedb8f19	-0.42882612
24	0xbe32a370	-0.17445159
25	0xbe981370	-0.2970233
26	0xbea8b953	-0.3295389
27	0xbeaf5446	-0.34243983
28	0xbf170f8e	-0.5900811
29	0xbe657ced	-0.22410937
30	0xbe8a11cf	-0.26966712
31	0xbe6bc6aa	-0.23025003
32	0xbf1aadf7	-0.604217
33	0xbf05f7a0	-0.5233097
34	0xbf544f5d	-0.829336
35	0xbe909b10	-0.28243303
36	0xbeac22e6	-0.33620375
37	0xbe3db9ad	-0.18527861
38	0xbeb658a8	-0.35614514
39	0xbf17719b	-0.59157723
40	0xbf279f7f	-0.65477747
41	0xbe1804e8	-0.14845622
42	0xbf09831e	-0.53715694
43	0xbf1e9ff4	-0.6196282
44	0xbea9900c	-0.33117712
45	0xbea5b269	-0.3236268
46	0xbec79d5b	-0.3898724
47	0xbe333ecb	-0.17504422
48	0xbeda1d9f	-0.42600724
49	0xbefffda5	-0.49998203
50	0xbf08f1a2	-0.534937
51	0xbebf9784	-0.37420285
52	0xbf1f0c55	-0.6212819
53	0xbe4e7f93	-0.20165853
54	0xbf084601	-0.5323182
55	0xbed17f00	-0.40917206
56	0xbf19bd3e	-0.60054386
57	0xbe414562	-0.18874124
58	0xbf1f4126	-0.62208784
59	0xbed97ba4	-0.42477143
60	0xbe5c82e1	-0.21534301
61	0xbf342944	-0.70375466
62	0xbf041070	-0.5158758
63	0xbefa7e27	-0.48924372

res_blocks.1.bn1.running_mean f4 [64]
0	0xbf6bc382	-0.92095196
1	0xbfa729d3	-1.3059639
2	0xbfed4789	-1.8537456
3	0xbfd78a11	-1.683901
4	0xbf2f3c68	-0.6845155
5	0xbf01074f	-0.5040178
6	0xbf73c65f	-0.95224565
7	0xbf8f1d6a	-1.1180851
8	0xbfbc59ed	-1.4714943
9	0xc00b1a50	-2.173481
10	0xc0191253	-2.3917434
11	0xbfae57d0	-1.3620548
12	0xbfd95dd5	-1.698176
13	0xbfe7de62	-1.8114741
14	0xbff16ca6	-1.8861282
15	0xbf5ce853	-0.86292
16	0xbe9dd70c	-0.3082813
17	0xbdee88fa	-0.1164722
18	0xbf37fe94	-0.7187283
19	0xbf9a8e98	-1.2074766
20	0xbf9ffeed	-1.2499672
21	0xbf103fc4	-0.563473
22	0xc00ac6a6	-2.1683745
23	0xbf33ef9b	-0.70287484
24	0xc0170736	-2.3598151
25	0xbf15fa00	-0.58584595
26	0xbff15329	-1.8853503
27	0xbf1d44b5	-0.61432964
28	0xbda6c013	-0.08142104
29	0xbfb91b24	-1.4461408
30	0x3e86945e	0.2628507
31	0xbfe3e5cc	-1.7804503
32	0x3e0988cf	0.13431095
33	0xbfa8ff8a	-1.3202984
34	0xbfb8750e	-1.4410722
35	0xbfca3ba0	-1.5799446
36	0xbf27e148	-0.65578127
37	0xbff71787	-1.9304055
38	0xbfe40ada	-1.7815812
39	0x3e7de4dc	0.24794334
40	0x3f9e5431	1.2369443
41	0xbfaf3791	-1.3688833
42	0x401e2e9f	2.4715955
43	0xbffff903	-1.9997867
44	0xbfea2b72	-1.8294508
45	0xbf8ba970	-1.0911083
46	0xbf01d7ac	-0.50719714
47	0xbfc76b9e	-1.5579717
48	0x3e3130aa	0.1730372
49	0xbf156de1	-0.58370787
50	0x3eef4137	0.46729442
51	0xc01dae0f	-2.4637487
52	0x3d887925	0.066637315
53	0xbfb3797b	-1.4021448
54	0xbe22ee72	-0.15911272
55	0x3e8e77fc	0.27825916
56	0x3dfb78d3	0.12278905
57	0xc05c2b53	-3.4401443
58	0xbedfa82f	-0.43683
59	0xbf465027	-0.7746605
60	0xbff972b2	-1.9488127
61	0xbf5a1db8	-0.852016
62	0xbf8e9f60	-1.1142387
63	0xbfab88db	-1.340114

res_blocks.1.bn1.running_var f4 [64]
0	0x405ab7b8	3.4174633
1	0x41040cd2	8.25313
2	0x40882d1c	4.2555065
3	0x40853333	4.1625
4	0x4055f5c9	3.3431265
5	0x404ff971	3.2495997
6	0x40425789	3.0365927
7	0x403eeb7f	2.9831235
8	0x409cec30	4.9038315
9	0x4088379d	4.2567887
10	0x40c33338	6.1000023
11	0x4084f1af	4.1545024
12	0x408d100b	4.4082084
13	0x407791eb	3.8682811
14	0x4087c1a2	4.242387
15	0x40683d3b	3.6287372
16	0x4027f172	2.6241117
17	0x4066ae5e	3.6043925
18	0x4069580a	3.6459985
19	0x405a10d5	3.4072773
20	0x40554539	3.33235
21	0x403654ef	2.848934
22	0x40ac1ffb	5.378904
23	0x40aca127	5.394672
24	0x40acee7b	5.4041114
25	0x404ba3ca	3.181872
26	0x40865bd9	4.198712
27	0x40481a6d	3.126613
28	0x404695ed	3.1029007
29	0x4096e3f5	4.715327
30	0x4082f146	4.0919523
31	0x409ace0a	4.8376513
32	0x4037cfc4	2.872056
33	0x4071becd	3.7772706
34	0x40fb6c7f	7.856994
35	0x40774aeb	3.8639476
36	0x40770edb	3.8602817
37	0x40a24ae7	5.0716434
38	0x4055c2c7	3.3400133
39	0x4042c9ca	3.0435662
40	0x4061a485	3.5256665
41	0x40a0f10d	5.029425
42	0x4069a92c	3.6509504
43	0x406cd93d	3.7007592
44	0x40fc4349	7.8832135
45	0x4090d8b6	4.526454
46	0x401856a5	2.3802884
47	0x4092bdc5	4.585665
48	0x40537b3f	3.3043973
49	0x406d91b8	3.712019
50	0x404111c9	3.0167105
51	0x40a78d6c	5.2360134
52	0x405670e4	3.3506403
53	0x401ccbfc	2.4499502
54	0x4009050b	2.1409328
55	0x4040ab2b	3.0104473
56	0x4023cf05	2.5595105
57	0x40e5a1c7	7.175998
58	0x4020bd69	2.5115607
59	0x40ba0233	5.8127685
60	0x40885475	4.2603097
61	0x404298ef	3.0405843
62	0x408c7efb	4.3905005
63	0x4093c725	4.6180596

res_blocks.1.conv2.weight f4 [64, 64, 3, 3]
0	0xbc05dc3a	-0.008170182
1	0x3d40332f	0.046923812
2	0xbd1b6341	-0.037936453
3	0xbca07dc9	-0.019591229
4	0xbe8a867a	-0.27055722
5	0xbdcb895d	-0.09938309
6	0x3d8fe266	0.07025604
7	0x3db81234	0.08987847
8	0xbdbb9f62	-0.09161259
9	0xbd99fa1e	-0.07518409
10	0xbd6052fc	-0.05476664
11	0xbc856762	-0.016284648
12	0xbdafa9de	-0.085773215
13	0xbe5ea077	-0.217409
14	0xbdf54a94	-0.11977115
15	0xbe237160	-0.15961218
16	0xbde3fb96	-0.111319706
17	0xbdf62f64	-0.12020758
18	0xbd2ce895	-0.042213995
19	0xbbc40921	-0.0059825336
20	0x3a58bf0e	0.00082682155
21	0x3ddf5c67	0.10906296
22	0x3e48b67a	0.1960086
23	0xbda4c95a	-0.08046217
24	0x3d1886d3	0.037237953
25	0x3d2cb194	0.04216154
26	0xbcd1d4de	-0.025614198
27	0xbe64e36c	-0.2235238
28	0x3e042b6c	0.12907189
29	0xbcff6033	-0.031173801
30	0xbd9ec538	-0.0775246
31	0xbcefdc45	-0.029279837
32	0xbe62e6a4	-0.22158295
33	0x3dc71687	0.097210936
34	0xbd45e4e5	-0.048313994
35	0x3cb7da2e	0.022442903
36	0x3df29f0f	0.11846744
37	0x3d8dab68	0.06917459
38	0xbc8b94b8	-0.017038688
39	0x3caeb9c1	0.021328809
40	0xbe81af53	-0.25329074
41	0xbda047e2	-0.078262106
42	0xbbee0c61	-0.0072646593
43	0x3e2cfc2b	0.1689307
44	0x3dc2ca5e	0.09511255
45	0x3da9cf01	0.08291436
46	0xbd32681f	-0.04355633
47	0xbdcc79cb	-0.09984168
48	0xbd976259	-0.07391805
49	0xbe31ec43	-0.17375283
50	0x3de181f4	0.11011115
51	0xbe13a13e	-0.14416978
52	0x3be5e004	0.00701523
53	0xbd098f23	-0.03358377
54	0xbd550d3b	-0.05201457
55	0xbe401004	-0.1875611
56	0xbd70551c	-0.058674917
57	0xbe22e39c	-0.15907139
58	0xbdd96a4a	-0.10615976
59	0xbd56eb5d	-0.052470554
60	0xbd4ee6f6	-0.05051323
61	0xbd85d5d9	-0.06534929
62	0x3baf2cd7	0.0053459215
63	0xbd3cfbf8	-0.046138734
64	0x3dc5db7c	0.09661004
65	0xbb92a375	-0.004475052
66	0xbd341a9c	-0.04397069
67	0x3d1b5ec6	0.03793218
68	0xbdd0105a	-0.10159369
69	0xbd3f7f5f	-0.04675233
70	0xbe26a5e3	-0.16274218
71	0xbd926d13	-0.071497105
72	0xbd9c20fd	-0.076234795
73	0x3e85580c	0.26043737
74	0x3d7b2854	0.061317757
75	0x3d961491	0.073281415
76	0x3eb6c747	0.35698912
77	0x3c944582	0.01809955
78	0xbdf291bc	-0.11844203
79	0x3e01930d	0.12653752
80	0xbd8c4a39	-0.06850094
81	0xbdbbbfa1	-0.0916741
82	0xbdd8c6f9	-0.10584826
83	0x3cf9acad	0.030477846
84	0xbd1524b6	-0.036411963
85	0xbbf70fd3	-0.007539728
86	0xbd91e452	-0.07123627
87	0x3e39f829	0.18161072
88	0x3d633284	0.055468097
89	0x3e0588b5	0.13040431
90	0xbd340dd3	-0.043958496
91	0xbe3f950b	-0.18709199
92	0xbdde9591	-0.10868371
93	0xbe2dccc1	-0.16972639
94	0xbe027eef	-0.12743734
95	0x3c26162f	0.010137125
96	0xbd0924a3	-0.033482205
97	0x3dd96e52	0.10616745
98	0xbdc99809	-0.098434515
99	0xbd3da28a	-0.046297587
100	0xbdc535ff	-0.096294396
101	0x3e2f8abb	0.17142765
102	0xbe2ee81d	-0.17080732
103	0xbd2fc6f1	-0.042914335
104	0x3db560e2	0.088563696
105	0xbd9817d4	-0.0742642
106	0xbcb9b2d4	-0.02266828
107	0x3daa21e3	0.08307245
108	0xbdcabe18	-0.09899539
109	0x3e10a9c2	0.14127257
110	0x3da85642	0.08219577
111	0x3c47ca87	0.012194282
112	0x3d979802	0.0740204
113	0xba0e81e5	-0.0005436226
114	0xbd2c7777	-0.042106118
115	0xbd5a2000	-0.053253174
116	0xbdb6a585	-0.08918289
117	0x3d565c80	0.05233431
118	0x3d7b199b	0.061303716
119	0x3dc0e7b4	0.09419194
120	0x3d059a63	0.032617938
121	0xbdc44682	-0.09583761
122	0x3d01fdc9	0.03173617
123	0x3b43f3a1	0.0029899853
124	0xbd474f63	-0.048659693
125	0xbdda6b4c	-0.106649965
126	0xbd04fd70	-0.03246826
127	0x3e32570c	0.17416018
128	0x3de0ad32	0.109705344
129	0x3e27801e	0.16357467
130	0x3de9065b	0.11378165
131	0x3d51e231	0.051241104
132	0x3de75c49	0.11296899
133	0x3dc5a326	0.09650259
134	0x3ce98279	0.028504597
135	0x3b33d26d	0.0027438656
136	0xb992a307	-0.00027968755
137	0x3d7203cc	0.059085652
138	0x3c3f533a	0.011677558
139	0x3db1304a	0.086517885
140	0x3dfa2780	0.12214565
141	0xbe85d824	-0.26141465
142	0xbe128645	-0.14309032
143	0x3cf2d30e	0.029641654
144	0xbd08c714	-0.03339298
145	0x3e5b62a1	0.21424343
146	0xbc60a748	-0.013711758
147	0xbd2a6d05	-0.041607875
148	0x3d9d8bfc	0.076927155
149	0xbe60ee0e	-0.2196581
150	0x3c09048c	0.0083629005
151	0x3ddeac2f	0.10872685
152	0xbdb00bcf	-0.08596002
153	0x3d9222cb	0.071355425
154	0x3de2c5ee	0.11072908
155	0x3cc5e3ae	0.024156418
156	0x3c8ec108	0.017426029
157	0xbd41ab3c	-0.047282442
158	0x3d865c1e	0.06560539
159	0xbce98d90	-0.028509885
160	0xbdc806ae	-0.09766899
161	0xbde90725	-0.11378316
162	0xbd261aae	-0.040552787
163	0xbd78d170	-0.06074661
164	0xbdb67196	-0.089083835
165	0x3c97b1b1	0.018517347
166	0xbd26ccbe	-0.0407226
167	0x3d6feae0	0.058573604
168	0x3db8f968	0.090319455
169	0x3db1012d	0.086428024
170	0xbe141b2f	-0.14463495
171	0xbe9a67a4	-0.30157197
172	0xbb2f3650	-0.0026735254
173	0xbe82ca17	-0.25544807
174	0xbdf6e0e4	-0.12054613
175	0x3ecbe053	0.39819583
176	0xbd6e7222	-0.058214314
177	0xbe757ef5	-0.23974212
178	0x3dd73d62	0.10509755
179	0xbe951e1f	-0.29124543
180	0xbde311a7	-0.11087351
181	0x3d15da4c	0.036585137
182	0x3c0bc177	0.008530012
183	0x3dc3b4ef	0.09555995
184	0xbe3a57e1	-0.18197586
185	0x3cd3570a	0.02579834
186	0x3cad3b71	0.021146508
187	0xbdd8dae1	-0.10588623
188	0x3b6f04ef	0.0036471447
189	0xbdbd6dcd	-0.092494585
190	0x3d8ccaf9	0.068746515
191	0xbe8f672d	-0.28008404
192	0xbdcc0b82	-0.099631324
193	0xbc24b79f	-0.010053544
194	0xbcb39f49	-0.021926539
195	0xbe3ab9cb	-0.18234937
196	0xbcc67bd8	-0.024228975
197	0x3de576ae	0.11204277
198	0xbe3b0b37	-0.18265997
199	0xbe65644a	-0.22401538
200	0xbd8988f7	-0.06715577
201	0xbd7bfe30	-0.06152171
202	0xbe1c72be	-0.15278146
203	0xbd4dbdde	-0.0502299
204	0xbd007c50	-0.031368554
205	0xbdb98fe4	-0.09060648
206	0xbd403b44	-0.04693152
207	0x3e02d388	0.12776005
208	0x3de7c61f	0.113170855
209	0x3be85f89	0.007091467
210	0x3da152b5	0.07877103
211	0x3dcda887	0.1004191
212	0x3d8cd65b	0.068768226
213	0xbe21977a	-0.1578044
214	0xbce52cdd	-0.027975494
215	0xbdc5076e	-0.09620558
216	0xbdf73812	-0.120712414
217	0x3e4ac4ed	0.19801684
218	0x3e4d6bec	0.200607
219	0x3e27796e	0.16354915
220	0x3d8e22e6	0.0694025
221	0x3dee97b7	0.11650031
222	0x3d44b847	0.048027303
223	0xbd1e1f20	-0.038603902
224	0x3db919d5	0.0903813
225	0xbcb17aed	-0.02166506
226	0xbd208e2f	-0.039198097
227	0xbe38a958	-0.1803335
228	0x3e6aca1c	0.22928661
229	0x3dd9e4b6	0.10639326
230	0xbe9caa6c	-0.30598772
231	0xbcadd9a6	-0.021221947
232	0xbdafa41c	-0.08576223
233	0xbc6c2381	-0.014412762
234	0x3db6ce50	0.0892607
235	0x3dc1bcaa	0.09459813
236	0x3b78cd29	0.0037964082
237	0xbe7830a3	-0.24237303
238	0x3e0dc6b7	0.13845335
239	0xbd02d986	-0.031945728
240	0x3d5e31a6	0.054246567
241	0xbc89698f	-0.016773967
242	0xbe1592d0	-0.14606786
243	0xbc685f55	-0.014182885
244	0xbcb12795	-0.02162532
245	0x3e02762f	0.12740396
246	0x3d637608	0.055532485
247	0x3da3f742	0.08006145
248	0xbe06c366	-0.13160476
249	0x3dcbc477	0.09949582
250	0xbdb9553a	-0.09049459
251	0xbba735d8	-0.005102854
252	0x3d268774	0.040656522
253	0x3e160915	0.14651902
254	0xbd6f7363	-0.05845965
255	0xbdb5f3e3	-0.08884408
